models/contact-based model.pt (torch, 4979 bytes, 1 tensors)

weight f4 [1, 660]
4.540806 -3.5760632 3.7003245 -6.9690404 2.530154 4.1424036 -4.472654 -2.9596648
-6.4080496 1.1616664 -1.999956 -1.8707914 -5.1917076 -3.7110956 -6.8835807 6.5914497
-5.8523083 -0.88841313 7.6448894 2.9088876 -1.270064 -0.96048427 -1.6457508 -2.1305048
-5.2137423 -1.7953577 -4.963343 4.946948 2.8215723 0.5893325 3.203626 -3.9838743
-4.207578 2.5563517 -4.598009 1.3026081 3.724553 -2.7392743 3.40887 5.241603
-3.320192 -0.18341237 -2.7831702 1.2942976 0.41691577 -1.4902809 -5.660644 -4.1125073
3.4296696 2.0879767 1.3361775 -1.9142132 -3.5436773 -8.086959 -2.8172877 -6.896586
-1.1875602 -1.1797326 0.37911192 -5.6890717 1.5556037 -1.9485952 -3.1958811 0.2569798
1.3228427 5.5579815 -2.1311824 1.8218077 2.071652 -4.875995 2.6186223 -0.5660548
-7.718624 6.530371 -5.2933593 0.82722807 6.311589 -3.4224737 -5.190029 -1.6619673
-5.3949547 4.952401 0.68878245 -6.236209 1.7713686 -0.14543301 -0.76896024 0.015578771
-3.7312381 -5.9845753 4.759585 5.120511 1.3150245 2.53432 -5.4203634 1.6042498
0.956328 2.3664694 -1.5074995 0.4092359 1.3816686 3.7751448 3.7232006 0.54792327
3.8872042 -2.3797572 0.7837316 -1.9121103 -4.3690925 -4.4186654 3.266769 8.453177
-0.31890902 -6.4782615 4.2486215 -3.8596277 3.803564 -1.8892553 5.113553 4.006078
-6.8606305 3.1079705 -5.7307096 1.97554 -0.42863083 2.5099661 -4.9921303 4.8213096
5.979194 5.0583563 2.1447835 0.9069776 -5.5367393 4.4059987 -7.064988 2.1132824
-7.014858 0.29666796 4.183951 4.8970103 -6.9283395 -4.4203863 3.8782372 0.9961324
-4.0248857 -3.6174035 0.67393464 5.138949 -1.7267094 5.226809 1.9836521 -0.8292212
-3.35784 -0.6793838 2.9038458 -5.126427 6.7162294 3.2453814 3.2659886 2.1254895
-7.0078487 0.13319018 2.3654299 3.6710434 -4.701115 0.61906666 -6.564461 -4.160758
1.2008672 4.3223543 0.57826644 6.6399956 -6.782153 7.0132155 5.464197 -0.5937911
-2.5896184 -7.6814256 2.1322622 6.263829 5.9880266 4.0711837 1.0456189 -6.0103316
0.6273364 -5.8279862 -3.2926152 4.199824 6.274345 5.0499306 2.7009904 -5.188929
-0.055725653 4.665793 2.878778 6.127692 3.7119336 0.80042696 -0.7833277 0.3759872
-2.4108915 3.7916322 6.8287306 0.50247985 7.7244005 -3.8405437 2.8474553 3.3517218
-0.8622285 -8.8107395 4.702809 1.7728734 5.5089316 -1.1958807 -6.204811 3.1463842
-6.7051587 0.29834136 3.3549945 0.5849081 1.5025892 -0.56388766 -5.4902716 1.4387941
-4.0325055 -1.5459476 -0.08659206 -2.8461182 5.945473 1.8638164 -0.022905573 -6.2222285
-2.0539167 6.7966123 -0.13604818 5.7657 1.2693377 -6.4017453 0.6305891 -4.5471997
0.31721482 -2.8077407 5.2493157 3.3716168 2.7948813 -2.4723115 -1.4145024 2.5843165
0.739079 -0.78218395 -0.03319899 -0.77696145 -5.246474 4.442695 -8.004248 -2.1047666
00000000: 484e 9140 38de 64c0 1ed2 6c40 6102 dfc0
00000010: 0bee 2140 928e 8440 fb1f 8fc0 266b 3dc0
00000020: be0e cdc0 7cb1 943f 8ffe ffbf 1876 efbf
00000030: 7822 a6c0 9782 6dc0 4b46 dcc0 28ed d240
00000040: 1c46 bbc0 0b6f 63bf efa2 f440 372b 3a40
00000050: 7591 a2bf 4ce2 75bf f6a7 d2bf 315a 08c0
00000060: fad6 a6c0 48ce e5bf b5d3 9ec0 664d 9e40
00000070: a494 3440 7fde 163f 3508 4d40 ccf7 7ec0
00000080: 7ba4 86c0 449b 2340 e422 93c0 ddbb a63f
00000090: 145f 6e40 4550 2fc0 ed2a 5a40 36bb a740
000000a0: 077e 54c0 74d0 3bbe 761f 32c0 8bab a53f
000000b0: fc75 d53e 86c1 bebf ff23 b5c0 a999 83c0
000000c0: b57f 5b40 69a1 0540 dd07 ab3f f004 f5bf
000000d0: 9ccb 62c0 2f64 01c1 714e 34c0 d5b0 dcc0
000000e0: f901 98bf 7a01 97bf f51a c23e e00c b6c0
000000f0: 061e c73f 916b f9bf 5189 4cc0 db92 833e
00000100: e952 a93f fcda b140 4b65 08c0 ff30 e93f
00000110: f295 0440 2708 9cc0 8297 2740 f8e8 10bf
00000120: f8fe f6c0 cdf8 d040 3363 a9c0 38c5 533f
00000130: 89f8 c940 cf09 5bc0 b814 a6c0 58bb d4bf
00000140: 78a3 acc0 127a 9e40 0c54 303f 068f c7c0
00000150: 35bc e23f 64ec 14be 94da 44bf 1a3e 7f3c
00000160: 9bcc 6ec0 a481 bfc0 854e 9840 3adb a340
00000170: b952 a83f 4d32 2240 9e73 adc0 0f58 cd3f
00000180: e9d1 743f 3c74 1740 bef5 c0bf 5e87 d13e
00000190: 84da b03f f99b 7140 eb48 6e40 b344 0c3f
000001a0: f4c7 7840 f14d 18c0 a2a2 483f 08c0 f4bf
000001b0: 9bcf 8bc0 b565 8dc0 be12 5140 3740 0741
000001c0: 0b48 a3be eb4d cfc0 b5f4 8740 2404 77c0
000001d0: 986d 7340 1ed3 f1bf 3aa2 a340 ca31 8040
000001e0: 498a dbc0 fde8 4640 f961 b7c0 7fde fc3f
000001f0: 8075 dbbe 49a3 2040 88bf 9fc0 2b48 9a40
00000200: 8f55 bf40 0ede a140 2244 0940 af2f 683f
00000210: f82c b1c0 f1fd 8c40 6214 e2c0 0540 0740
00000220: b779 e0c0 dde4 973e ede2 8540 4fb4 9c40
00000230: f5b4 ddc0 ce73 8dc0 0a35 7840 8802 7f3f
00000240: ddcb 80c0 8a83 67c0 fb86 2c3f 4572 a440
00000250: d004 ddbf 0542 a740 50e8 fd3f d747 54bf
00000260: dae6 56c0 19ec 2dbf 9cd8 3940 b10b a4c0
00000270: 5aeb d640 54b4 4f40 f505 5140 0508 0840
00000280: 4c40 e0c0 0263 083e 3463 1740 60f2 6a40
00000290: 896f 96c0 277b 1e3f 1110 d2c0 ee24 85c0
000002a0: 04b6 993f ba50 8a40 4509 143f d87a d440
000002b0: 6607 d9c0 436c e040 b4da ae40 b202 18bf
000002c0: 4fbc 25c0 3dce f5c0 fc76 0840 4a71 c840
000002d0: ea9d bf40 2347 8240 d7d6 853f a354 c0c0
000002e0: 1e99 203f dd7e bac0 35ba 52c0 f564 8640
000002f0: 6fc7 c840 0899 a140 07dd 2c40 b50b a6c0
00000300: 9540 64bd 2d4e 9540 e63d 3840 0e16 c440
00000310: 5290 6d40 c8e8 4c3f 2a88 48bf 6581 c03e
00000320: 0c4c 1ac0 1aaa 7240 f684 da40 85a2 003f
00000330: 4a2e f740 78cb 75c0 b53c 3640 9c82 5640
00000340: 02bb 5cbf caf8 0cc1 697d 9640 84ed e23f
00000350: 2b49 b040 9e12 99bf d08d c6c0 5c5e 4940
00000360: a990 d6c0 33c0 983e 3bb8 5640 8abc 153f
00000370: d854 c03f f15a 10bf 4eb0 afc0 682a b83f
00000380: 490a 81c0 9ce1 c5bf 2e57 b1bd cd26 36c0
00000390: 5141 be40 8991 ee3f 78a4 bbbc 7f1c c7c0
000003a0: 5f73 03c0 d97d d940 3750 0bbe 9d80 b840
000003b0: a879 a23f 19db ccc0 4a6e 213f a982 91c0
000003c0: fb69 a23e 06b2 33c0 65fa a740 92c8 5740
000003d0: 56df 3240 5a3a 1ec0 6a0e b5bf 7165 2540
000003e0: 4834 3d3f 353d 48bf aafb 07bd f2e6 46bf
000003f0: 1de3 a7c0 8f2a 8e40 6611 00c1 7fb4 06c0
