models/contactmap_filter_planb.pt (torch, 6231 bytes, 2 tensors)

weight f4 [2, 484]
0.0014926123 0.016551265 0.6789831 -1.0524145 0.7966613 0.0034623852 0.008618187 0.041582864
0.018009538 -0.042628855 -0.041150566 -0.016398441 0.02581468 -0.037136383 -0.0033874025 -0.021684581
-0.007493816 -0.024395613 -0.039458126 0.031706043 0.023177745 0.023835642 0.0799276 -0.000361752
0.009328384 0.13125029 1.1047015 0.7150913 -0.037079986 0.034490835 1.5013651 0.011529332
0.0003699281 0.03899989 -0.0018677983 -0.009771012 -0.015693534 -0.04256984 0.010339537 -0.031747684
-0.041267563 0.018565282 0.017848844 0.029894998 0.66611075 0.028768606 0.070962705 0.07273005
-0.43219796 0.81635815 -0.16487208 0.023512473 -0.76280355 -0.53210276 0.045212444 -0.013896715
0.003981547 -0.02336966 0.03383693 -0.03610546 -0.025082806 0.010181785 -0.029054778 -0.018437115
0.043027002 -0.041329034 -1.0588126 0.07180149 0.0009724766 0.07090767 0.04626787 -0.8762939
-1.3096073 0.031812545 -0.020556265 0.024627123 0.035389204 0.02958508 -0.0028026104 0.042853534
0.012026142 0.0285004 0.020628707 -0.040074393 0.006358965 -0.0344966 0.030250674 -0.020532468
0.85242176 1.0934805 -0.35423264 0.019997273 0.045141276 0.06693385 -0.1282872 -1.1803398
-0.53826195 0.028478542 -0.02321853 1.1010196 -0.03320546 -0.012219782 -0.043901313 -0.009037062
0.02288094 -0.030756967 -0.0387473 0.015188786 -0.035308015 -0.040523123 0.030156782 0.67470056
0.8602873 -0.85009336 0.03077051 0.04094034 0.052968245 0.036785837 -0.7692269 -0.0001638586
0.007120089 0.043959796 -0.012681278 -0.031823017 -0.016980523 -0.0012776256 0.0054906933 0.034767028
-0.012137376 0.024471955 -0.001988931 0.012503722 0.027659671 -0.0403239 -0.15447448 -1.3006979
-0.10280237 0.053325985 1.3984039 -0.0009669926 0.13230157 -0.101877026 0.59286696 0.24999203
1.3095458 -0.81463325 -0.02332896 -0.0009150614 -0.03571411 0.040341686 0.03901753 0.022245282
-0.017481068 -0.026684837 -0.043145034 0.005901066 0.0032322407 0.034920745 -1.2102067 0.10630126
0.0061901254 -0.55913454 0.030019732 0.04160596 -0.03361419 -1.1728743 0.0021722263 0.040974196
-0.0025734901 -0.025249839 -0.0028758754 0.038867094 0.02345483 0.003573743 -0.023809731 -0.0068050516
0.007292596 1.5281353 -0.7687013 0.028516613 -0.5453114 -0.77436465 0.12155378 0.06388926
-0.31514192 0.024493016 0.73552126 -1.0872283 0.0039053939 -0.0048239664 0.015266089 -0.03182536
0.033009335 0.016351923 0.042659674 -0.00078366563 -0.045234043 -0.002010443 0.032561027 -0.0012367531
-0.54543406 0.01514799 -0.009630951 0.003929209 -0.115391664 0.02536851 0.01659299 -0.18857342
0.0146456435 -0.037015975 -0.70515376 0.012888789 0.023631768 0.014348068 -0.0391311 0.022624949
-0.015092736 -0.005886398 -0.042625804 -0.0016451261 0.009016958 0.025085911 -0.02004438 -0.035765454
0.03126373 -0.029930826 0.55779546 -0.028873766 0.76287454 0.0739335 0.039634097 0.008424837
-1.2102067 -0.6892317 -0.00034100903 0.037259527 0.0013019226 -0.00043806163 1.0286945 0.042637646
-0.041257046 -1.0551795 0.038409024 -0.026313208 -0.019108767 0.031484567 1.0831106 -0.018360203
0.29899326 -1.1984469 -1.1007795 -0.0059616375 0.070918076 0.8718932 0.012463554 1.2281809
00000000: c2a3 c33a 8596 873c d6d1 2d3f 85b5 86bf
00000010: fff1 4b3f 2fe9 623b 4c33 0d3c cb52 2a3d
00000020: bd88 933c 989b 2ebd 7f8d 28bd 0656 86bc
00000030: 4f79 d33c 521c 18bd 2fff 5dbb dda3 b1bc
00000040: af8e f5bb 4fd9 c7bc d89e 21bd 32de 013d
00000050: 41df bd3c f742 c33c 15b1 a33d 88a9 bdb9
00000060: 14d6 183c 7a66 063e dc66 8d3f 3910 373f
00000070: 2fe1 17bd 4346 0d3d bb2c c03f 86e5 3c3c
00000080: e9f2 c139 59be 1f3d e9d0 f4ba 9816 20bc
00000090: ba8f 80bc b65d 2ebd 2967 293c dc09 02bd
000000a0: 2d08 29bd 3816 983c bd37 923c 5be6 f43c
000000b0: 3c86 2a3f 24ac eb3c e554 913d 7ef3 943d
000000c0: 0d49 ddbe d9fc 503f 3ad4 28be 3b9d c03c
000000d0: 1847 43bf e337 08bf af30 393d 0caf 63bc
000000e0: a377 823b bb71 bfbc 9898 0a3d 52e3 13bd
000000f0: 757a cdbc 80d1 263c 4904 eebc 6f09 97bc
00000100: 153d 303d a248 29bd 2c87 87bf a90c 933d
00000110: cded 7e3a 0a38 913d 6183 3d3d cc54 60bf
00000120: 36a1 a7bf df4d 023d 9d65 a8bc d2be c93c
00000130: 45f4 103d 695c f23c 00ac 37bb 3087 2f3d
00000140: 4c09 453c ac79 e93c 89fd a83c 0c25 24bd
00000150: dd5e d03b 4f4c 0dbd 43d0 f73c b533 a8bc
00000160: 5038 5a3f 2bf7 8b3f fb5d b5be 52d1 a33c
00000170: 0fe6 383d 9d14 893d b85d 03be 6015 97bf
00000180: 89cb 09bf d54b e93c c934 bebc 36ee 8c3f
00000190: 7302 08bd 7b35 48bc ddd1 33bd 2f10 14bc
000001a0: cf70 bb3c 09f6 fbbc 7db5 1ebd 63da 783c
000001b0: 239f 10bd 93fb 25bd 5b0b f73c 2db9 2c3f
000001c0: ca3b 5c3f b89f 59bf 7012 fc3c 0fb1 273d
000001d0: 3bf5 583d bfac 163d 0eec 44bf 75d1 2bb9
000001e0: a34f e93b 300f 343d 23c5 4fbc da58 02bd
000001f0: bd1a 8bbc 0076 a7ba 46eb b33b df67 0e3d
00000200: d8db 46bc 6979 c83c ba58 02bb 69dc 4c3c
00000210: 8996 e23c ac2a 25bd 8f2e 1ebe 457d a6bf
00000220: 0d8a d2bd 596c 5a3d e6fe b23f c67d 7dba
00000230: 107a 073e e7a4 d0bd 21c6 173f e9fd 7f3e
00000240: 329f a73f ce8b 50bf 601c bfbc bbe0 6fba
00000250: f548 12bd 533d 253d d8d0 1f3d bd3b b63c
00000260: 7534 8fbc 299a dabc d9b8 30bd bb5d c13b
00000270: 00d4 533b 0e09 0f3d 0ee8 9abf 7ab4 d93d
00000280: 89d6 ca3b 7123 0fbf f1eb f53c 036b 2a3d
00000290: 08af 09bd bf20 96bf e95b 0e3b 8fd4 273d
000002a0: 00a8 28bb c0d8 cebc 2f79 3cbb 1a33 1f3d
000002b0: 5824 c03c 7535 6a3b a00c c3bc e9fc debb
000002c0: bbf6 ee3b f099 c33f 9cc9 44bf ac9b e93c
000002d0: 8799 0bbf c33c 46bf 30f1 f83d 5fd8 823d
000002e0: 485a a1be 94a5 c83c 1f4b 3c3f 4c2a 8bbf
000002f0: a3f1 7f3b 5d12 9ebb 9e1e 7a3c 4f5b 02bd
00000300: cc34 073d 78f4 853c e9bb 2e3d e96e 4dba
00000310: 5547 39bd a3c1 03bb b65e 053d 8c1a a2ba
00000320: 91a1 0bbf 462f 783c 23cb 1dbc 98c0 803b
00000330: 7752 ecbd 9fd1 cf3c 06ee 873c 6419 41be
00000340: 48f4 6f3c 109e 17bd f584 34bf 802b 533c
00000350: 6997 c13c 2914 6b3c ef47 20bd f557 b93c
00000360: 8647 77bc afe2 c0bb 6598 2ebd 46a1 d7ba
00000370: ddbb 133c f880 cd3c 1d34 a4bc cc7e 12bd
00000380: 660e 003d 7e31 f5bc afcb 0e3f ad88 ecbc
00000390: bf4b 433f 726a 973d 5d57 223d 5408 0a3c
000003a0: 0ee8 9abf 7d71 30bf 75c9 b2b9 729d 183d
000003b0: 46a5 aa3a a3ab e5b9 43ac 833f d0a4 2e3d
000003c0: 26fd 28bd 1f10 87bf c852 1d3d cc8e d7bc
000003d0: fd89 9cbc f6f5 003d 5ea3 8a3f 2368 96bc
000003e0: a515 993e b566 99bf 58e6 8cbf d759 c3bb
000003f0: 7f3d 913d 6534 5f3f ef33 4c3c 0835 9d3f

bias f4 [2]
0.034916583 -0.044119716
00000000: b104 0f3d e0b6 34bd
